models/ru_sentence_embedder_v3.pt (torch, 81180 bytes, 2 tensors)

weight f4 [50, 384]
0	0x40af9097	5.4864
1	0x405ae9f5	3.4205296
2	0xbea469f0	-0.32112074
3	0xc162154f	-14.130202
4	0x41106871	9.025498
5	0x40c865aa	6.26241
6	0xbf523d6a	-0.8212496
7	0x40c76a3f	6.2317195
8	0x410c3199	8.762109
9	0x409dc68d	4.930487
10	0xc0bf37be	-5.9755545
11	0x412f17be	10.943296
12	0x40f3b4c5	7.6158166
13	0x41565e8d	13.398084
14	0x3f28fd46	0.66011465
15	0xc0c2416c	-6.070486
16	0xc0b85175	-5.7599435
17	0x40a860cf	5.2618175
18	0x405c7448	3.4445972
19	0x40272bac	2.6120405
20	0x411f20dd	9.945523
21	0x3febcf03	1.842255
22	0x41010b1e	8.065214
23	0x41248089	10.281381
24	0x413e3818	11.888695
25	0xbf9cb70f	-1.2243365
26	0xc12133e8	-10.075172
27	0xc0848f34	-4.142481
28	0xc1216f71	-10.089707
29	0x408dbf75	4.429621
30	0x401dc795	2.4653065
31	0xbfb0f8ba	-1.3825905
32	0x4186711b	16.805227
33	0x403de8de	2.967338
34	0x3f17d353	0.5930683
35	0x412902a7	10.563148
36	0xbfbfc7b0	-1.4982815
37	0x413586b2	11.345385
38	0x4147d3db	12.489223
39	0xc0557a7d	-3.335601
40	0xc00da39c	-2.213111
41	0x3f10a630	0.5650358
42	0x40367f98	2.8515377
43	0xbeeef658	-0.4667232
44	0x3f992545	1.1964499
45	0xbf7f2bad	-0.9967602
46	0x413ce9e0	11.807098
47	0xc09f4af8	-4.9779015
48	0x4104aadc	8.291714
49	0xc0faea3d	-7.8410935
50	0xc0bd9c10	-5.9253006
51	0x412b4836	10.70513
52	0xc0dee1ba	-6.9650545
53	0x4033f47a	2.8117967
54	0x3fa7f0f7	1.3120412
55	0x412c0c7a	10.753046
56	0x40ce59b4	6.44845
57	0xc0770ccd	-3.8601563
58	0xc0233f83	-2.5507514
59	0xc11125a8	-9.071693
60	0x41401ab4	12.006519
61	0xbf12765e	-0.57211864
62	0x4105ca47	8.361884
63	0x40f3499f	7.602737
64	0xc075868d	-3.8363373
65	0xc0c01541	-6.0025945
66	0x40eadf3c	7.3397503
67	0xc0c04ff8	-6.009762
68	0x3fecdef1	1.8505536
69	0xc020f639	-2.5150282
70	0xc043ba0c	-3.0582304
71	0x405faef6	3.4950538
72	0xbd8d0169	-0.068850346
73	0x3fc50b56	1.5394084
74	0xc19675b8	-18.80748
75	0x415eef8f	13.933486
76	0xc041e085	-3.0293286
77	0xbce53e2c	-0.027983747
78	0xc019cbfb	-2.403075
79	0xc08bd38a	-4.3695726
80	0xc15c59eb	-13.771953
81	0xc138c6e6	-11.548559
82	0xc0900ac4	-4.501314
83	0xbfc61962	-1.5476496
84	0xc11cfaaf	-9.811202
85	0xbfd363f3	-1.6514877
86	0xc0909b4b	-4.5189567
87	0xc0b058e4	-5.510851
88	0x3e18e81d	0.14932294
89	0xc026ea6b	-2.6080577
90	0x40d6af23	6.708879
91	0x40fc0f5e	7.876876
92	0x3fe2b887	1.7712563
93	0x4076bdef	3.8553426
94	0xc097bf37	-4.7420917
95	0x3fcd7fda	1.6054642
96	0x3f60fdcf	0.8788728
97	0x3fdc71c5	1.722222
98	0xc10aa488	-8.665169
99	0xc131b7f9	-11.107415
100	0xc1014558	-8.07943
101	0xc0dd71c6	-6.9201384
102	0x40cb102e	6.345725
103	0x40fb9d92	7.8629847
104	0x406915fa	3.6419663
105	0x40edd71f	7.43251
106	0x4039bc78	2.9021282
107	0xc0a09d0e	-5.0191717
108	0x4024b49c	2.5735235
109	0x40c25f10	6.0741043
110	0xc074824a	-3.8204522
111	0x410f9ac9	8.975289
112	0xbf548744	-0.830189
113	0x40e6e71b	7.215711
114	0xc195f12a	-18.742756
115	0x410e3bb2	8.889574
116	0x41291783	10.56824
117	0x41103c87	9.014777
118	0x4009c6e9	2.1527655
119	0xc0bf35fd	-5.9753404
120	0xc1099bde	-8.6005535
121	0x409d1db3	4.9098754
122	0x4087cf83	4.244081
123	0xc021b8cb	-2.5269039
124	0x405fd34c	3.4972715
125	0x3fdc40f3	1.7207321
126	0x3f82270a	1.0168164
127	0x3f230d9b	0.63692635
128	0x3f8ebb3c	1.1150889
129	0x3f24b8e5	0.64344627
130	0x3e530f38	0.20611274
131	0xbf24abbe	-0.6432456
132	0x3e8c8b8f	0.27450225
133	0x3f4fd55b	0.8118493
134	0x3e1cf0b6	0.15326199
135	0xbe031896	-0.12802348
136	0x3d9df4ee	0.07712732
137	0x3f2adb11	0.6674052
138	0x3dea63a5	0.11444787
139	0xbce114b3	-0.02747569
140	0x3e258c3e	0.1616678
141	0x3e905c06	0.28195208
142	0xbe111d63	-0.14171366
143	0x3d8a797c	0.067614526
144	0x3e50a247	0.20374404
145	0x3fcd33d2	1.6031439
146	0x3ea7ba6d	0.3275942
147	0x3f950ad3	1.1643928
148	0x3ee9c622	0.45658976
149	0xbe1db35e	-0.15400454
150	0x3f2a1d85	0.66451293
151	0x3e241cdd	0.16026635
152	0x3ea82022	0.32837015
153	0x3f05dd04	0.5229037
154	0xbf262f77	-0.64916176
155	0xbe38bb25	-0.1804014
156	0xbea85c4a	-0.3288291
157	0x3e9675a1	0.2938662
158	0x3e3b48e6	0.18289527
159	0x3f509845	0.81482345
160	0x40035dd8	2.0526028
161	0x3eff96f4	0.49919856
162	0x3f86fb44	1.054543
163	0x3e164be0	0.14677382
164	0x3dc23e74	0.09484568
165	0x3f0a8a91	0.54117686
166	0xbf029ee9	-0.5102373
167	0x3e60e91b	0.21963923
168	0xbf184f7c	-0.59496284
169	0x3f5e45aa	0.8682505
170	0x3f5bfda0	0.85933876
171	0x3edc23f4	0.4299618
172	0x3e8d0fe4	0.27551186
173	0xbf27a719	-0.65489346
174	0x3e070487	0.13185321
175	0x3ecdac36	0.4017045
176	0x3e2d5df4	0.16930372
177	0xbf29d074	-0.663337
178	0x3e006540	0.12538624
179	0xbdb706db	-0.089368545
180	0x3e8aa43a	0.2707842
181	0x3ea44ed6	0.32091397
182	0xbe15bda3	-0.14623122
183	0x3ec0ac03	0.37631235
184	0xbe598016	-0.21240267
185	0x3e15d3c7	0.14631568
186	0xbe23f494	-0.16011268
187	0x3dc87db2	0.097895995
188	0xbd589745	-0.052878637
189	0x3f343aa8	0.70402
190	0x3f251dc4	0.64498544
191	0x3e443130	0.19159389
192	0xbee1fda9	-0.4413884
193	0xbf0e5744	-0.55601907
194	0xbc37d68e	-0.011220587
195	0x3fa09e3b	1.2548288
196	0x3d90d75d	0.07072327
197	0x3e00edd6	0.12590727
198	0xbd2f32a8	-0.04277292
199	0x3f1c5b3b	0.61076707
200	0x3f1626e7	0.5865311
201	0x3f119ed4	0.5688298
202	0xbccbca74	-0.02487681
203	0x3f122485	0.57086974
204	0x3e913da6	0.28367347
205	0x3e4c6392	0.19959858
206	0x3e345916	0.17612109
207	0x3f81f9f8	1.015441
208	0xbe8b8d53	-0.2725626
209	0xbf3cdb9c	-0.737726
210	0x3f76ad93	0.96358603
211	0xbed87925	-0.42279926
212	0x3ec8a825	0.39190784
213	0x3e438204	0.19092566
214	0x3e8681e1	0.26270965
215	0xbcfffd32	-0.031248663
216	0xbdfc4031	-0.12316931
217	0xbf47056c	-0.7774265
218	0x3eef0c4e	0.46689075
219	0xbec8352b	-0.39103064
220	0xbd8c2a3a	-0.068439916
221	0x3ee5e39c	0.44900215
222	0x3ea734e0	0.32657528
223	0xbf02fda5	-0.5116828
224	0x3c73c2b1	0.014877961
225	0x3e045e2e	0.12926552
226	0x3f2a2fb0	0.66479015
227	0x3fad1571	1.3522168
228	0x3e3888f2	0.1802099
229	0x3f4038bd	0.75086576
230	0xbe09d8f9	-0.13461675
231	0xbe904ff4	-0.28186
232	0xbe1bf38f	-0.15229629
233	0x3e30c04b	0.17260854
234	0x3e5c7d54	0.21532184
235	0x3eb1ec20	0.34750462
236	0xbf020211	-0.50784403
237	0xbecb7097	-0.39734337
238	0xbd8c78a2	-0.068589464
239	0xbe2305d6	-0.15920195
240	0x3ec8c5b4	0.39213336
241	0xbe21fb45	-0.15818508
242	0xbde91ad5	-0.11382071
243	0x3f8cf7ef	1.1013163
244	0x3e3c106c	0.1836564
245	0x3f569fb7	0.83837456
246	0x3eb6ac10	0.35678148
247	0x3f01a45f	0.50641435
248	0xbed65226	-0.4185955
249	0x3eb88197	0.3603637
250	0xbf41ac4c	-0.7565353
251	0x3e151c5d	0.14561601
252	0x3e70c0ec	0.23511094
253	0xbe885b33	-0.2663208
254	0x3f6683d1	0.90044886
255	0x3f8cea7a	1.1009057

bias f4 [50]
0	0xc096b823	-4.7099776
1	0x3ee4837c	0.44631565
2	0x3f945ced	1.1590859
3	0x4054f006	3.3271499
4	0xbfd459ec	-1.6589942
5	0x3fae2d22	1.3607523
6	0x3fc190aa	1.5122273
7	0x3c6096be	0.013707815
8	0xbfcd6cb1	-1.6048795
9	0xbf431c77	-0.7621531
10	0x40278cbc	2.6179647
11	0x3f080735	0.53136
12	0x410c6d57	8.776694
13	0xbec2a2af	-0.38014743
14	0xc0995928	-4.7921333
15	0xc040c423	-3.0119712
16	0xc033742c	-2.8039656
17	0x3ff91c6a	1.9461796
18	0x3fc7d0a2	1.5610545
19	0xc13a3f5d	-11.64047
20	0xc13bd0e6	-11.738501
21	0x3efc0454	0.49222052
22	0x401864f6	2.3811622
23	0x4015f992	2.3433576
24	0x40d54e10	6.665779
25	0xc150418c	-13.016003
26	0xbdd2a1b8	-0.10284752
27	0x3fbed5f1	1.490904
28	0xc14cf8e9	-12.810769
29	0xc10b8d8c	-8.722057
30	0xc0b57e02	-5.671632
31	0xbf719fcd	-0.9438446
32	0x3f4c4ebb	0.79807633
33	0x408c4fb0	4.3847275
34	0xc12d646e	-10.837019
35	0x413f5cf7	11.9601965
36	0xc0b1b82c	-5.553732
37	0x402a6f05	2.663026
38	0xc04f5688	-3.2396564
39	0x3e8da71f	0.27666566
40	0xc0f7d7b6	-7.745082
41	0xc0b456e5	-5.6356072
42	0xc0aa6d27	-5.3258243
43	0xc122e7f2	-10.181627
44	0x40b2d371	5.5883107
45	0xc0f8340a	-7.7563524
46	0xbfa21d66	-1.2665222
47	0xbef12a4f	-0.4710259
48	0x4045880a	3.0864282
49	0xc0c34eb4	-6.1033573
