models/ru_sentence_embedder_v4_text.pt (torch, 201417 bytes, 2 tensors)

weight f4 [128, 384]
0	0x3e1ea6b7	0.15493284
1	0xbe66066c	-0.22463387
2	0x3e0f0a27	0.13968717
3	0x3e56ccec	0.20976609
4	0xbf3d067a	-0.7383801
5	0x3eec9228	0.46205258
6	0xbd72274b	-0.059119504
7	0x3ec6b080	0.38806534
8	0x3eca275a	0.39483148
9	0xbd32f3f9	-0.0436897
10	0x3d76975e	0.06020295
11	0x3ee4764a	0.44621497
12	0xbe9a0e57	-0.30089065
13	0x3d50ab1d	0.050944436
14	0x3ea5c200	0.32374573
15	0xbeca0569	-0.39457253
16	0x3e616add	0.22013421
17	0x3dbcba6e	0.09215246
18	0x3e78f08d	0.24310513
19	0xbde67823	-0.11253383
20	0xbe9c6922	-0.3054896
21	0x3f0c13d1	0.5471774
22	0xbf3bfa3d	-0.7342871
23	0xbf652d28	-0.8952203
24	0x3e513248	0.20429337
25	0x3cb59af8	0.022168621
26	0x3e26d680	0.16292763
27	0x3e78c752	0.24294785
28	0x3dfe3ecf	0.124143235
29	0x3fc50800	1.5393066
30	0x3e8d1c08	0.2756045
31	0xbf743e8f	-0.95407957
32	0x3dfa344c	0.12217006
33	0xbc44081b	-0.011964823
34	0xbf0c52b2	-0.54813683
35	0x3e66c737	0.22536932
36	0xbdacb457	-0.084328346
37	0xbfa864c6	-1.3155754
38	0xbf6fc92b	-0.9366633
39	0x3dc475a9	0.095927544
40	0x3e585ee3	0.21129946
41	0x3e139c18	0.14415014
42	0xbdf24df8	-0.118312776
43	0xbda1cea2	-0.0790074
44	0xbeedf078	-0.46472526
45	0x3d449522	0.047993787
46	0x3ee8c942	0.45466048
47	0xbdab9ebf	-0.08379888
48	0x3f42d0b0	0.7609968
49	0x3e56a928	0.20962965
50	0x3e5f0da4	0.21782547
51	0xbe9f80ed	-0.3115305
52	0xbcc40f72	-0.023933146
53	0xbef38f8d	-0.47570458
54	0x3dea2554	0.11432901
55	0x3d81cb30	0.06337583
56	0x3e1e94ff	0.15486525
57	0xbdf7d688	-0.121014655
58	0x3f04c86f	0.5186834
59	0x3f935a6f	1.1511973
60	0x3f4856d0	0.78257465
61	0x3ce5c8e5	0.028049896
62	0xbedbe63e	-0.42949098
63	0xbe03b617	-0.1286243
64	0xbecac104	-0.39600384
65	0xbeae22c2	-0.34010893
66	0xbf2be042	-0.67139065
67	0x3eb6d9b7	0.35712978
68	0x3f1d191b	0.6136643
69	0x3e72e4df	0.2372012
70	0x3ef8d6b4	0.48601305
71	0x3ee14cc5	0.44003883
72	0xbe2b7603	-0.16744237
73	0x3da920e9	0.0825823
74	0xbda7d4fc	-0.081949204
75	0x3d053a2e	0.032526188
76	0x3e62c06a	0.22143713
77	0xbd9cd462	-0.07657696
78	0xbed313a5	-0.41225925
79	0xbd9e07a6	-0.077163026
80	0xbf017d54	-0.5058186
81	0x3f168cb9	0.58808476
82	0x3ecadb80	0.3962059
83	0xbda3234d	-0.079657175
84	0x3f11d23c	0.5696142
85	0x3e635206	0.22199258
86	0xbf6af875	-0.91785365
87	0x3f130beb	0.5744006
88	0xbda5413d	-0.08069084
89	0x3f262ec5	0.64915115
90	0x3e6ef8f7	0.2333716
91	0x3d3f3fd0	0.046691716
92	0x3e89636c	0.26833665
93	0xbd2ee22b	-0.04269616
94	0xbf19341b	-0.5984513
95	0x3e85d846	0.26141566
96	0xbe3cfca1	-0.18455745
97	0x3f4282ef	0.7598104
98	0xbf3c519c	-0.73562026
99	0x3f8bcdd7	1.0922192
100	0x3e1f32d6	0.15546736
101	0xbd0e6486	-0.034763835
102	0x3e64b3c8	0.22334206
103	0x3e7028e9	0.23453106
104	0x3ca63ad7	0.020291729
105	0x3d20bfa1	0.03924525
106	0x3f1c0323	0.60942286
107	0x3cd87759	0.026424097
108	0xbf5364ae	-0.825755
109	0xbad46b3e	-0.0016206277
110	0x3f8516b7	1.0397557
111	0x3cc77389	0.024347084
112	0x3db3dc28	0.08782226
113	0x3e8c0ee4	0.2735511
114	0xbf5297cf	-0.8226289
115	0xbe827796	-0.25481862
116	0x3e2cabe1	0.16862442
117	0xbca5294c	-0.020161293
118	0xbf1487ba	-0.580196
119	0x3e860e42	0.26182753
120	0x3e832537	0.2561433
121	0xbf5dbef2	-0.86619484
122	0x3d9564ea	0.072946385
123	0xbecb1a88	-0.3966868
124	0x3e91ec80	0.28500748
125	0xbf117c8e	-0.5683068
126	0xbdfc585b	-0.1232154
127	0xbe1609b7	-0.14652143
128	0x3de7c2e1	0.11316467
129	0xbd0dcd6a	-0.034619726
130	0x3d6f3e2c	0.0584089
131	0xbb2ffc32	-0.00268532
132	0xbdc4a724	-0.09602192
133	0x3dce963c	0.10087249
134	0x3ccc528e	0.024941709
135	0x3e01223d	0.12610717
136	0x3e0737ae	0.13204834
137	0xbd03edd9	-0.03220925
138	0x3d51e83e	0.051246874
139	0x3bf07355	0.0073379674
140	0x3b8890e8	0.004167665
141	0x3e2235f5	0.15840895
142	0x3c90ece6	0.017691087
143	0x3d3886d2	0.04505045
144	0x3df01115	0.11722008
145	0xbe267c49	-0.16258349
146	0x3d9a1bec	0.07524857
147	0x3d69e07a	0.057098843
148	0xbc5d0969	-0.013491013
149	0xbc06e673	-0.008233654
150	0xba3b369d	-0.0007141622
151	0x3c417057	0.011806569
152	0x3d20707f	0.039169785
153	0xbd6f39f0	-0.058404863
154	0xbcbe7060	-0.023246944
155	0x3cbd5351	0.023111017
156	0x3c931b32	0.017957304
157	0x3dbfd8a6	0.09367494
158	0xbafad915	-0.0019138182
159	0xbd2755f6	-0.040853463
160	0xbd4e722b	-0.050401848
161	0xbcceb9cc	-0.02523508
162	0xbe3b3c46	-0.18284711
163	0xba56b251	-0.00081900234
164	0xbdbf139c	-0.09329912
165	0xbd261481	-0.040546898
166	0xbd9070c9	-0.07052762
167	0x3d178de0	0.037000537
168	0x3d391d61	0.045194034
169	0x3c87af4a	0.016563077
170	0x3d44f46d	0.048084665
171	0x3cf8a6a1	0.030352892
172	0xbd9f9d2e	-0.077936515
173	0x3b3360f1	0.0027371014
174	0x3e1d65bb	0.15370838
175	0xbcd8b3e0	-0.026452959
176	0x3d473232	0.048631854
177	0x3dfba9a9	0.122882195
178	0x3b89f3ca	0.00420997
179	0xbd1bdf96	-0.038055025
180	0xbd2ddeed	-0.042448927
181	0xbd97f7e2	-0.07420327
182	0xbd29091e	-0.04126846
183	0x3b021ef6	0.001985488
184	0x3d8d6323	0.069036745
185	0x3b32b956	0.0027271113
186	0xbd49fbb9	-0.049312327
187	0x3dedd638	0.116131246
188	0x3d1967bf	0.037452456
189	0xbd48445f	-0.04889333
190	0xbd051581	-0.03249121
191	0x3ced5e51	0.028975638
192	0xbca886cd	-0.02057209
193	0xbdc1b905	-0.09459118
194	0x3bdf1d77	0.0068089324
195	0x3cf1ffd2	0.02954093
196	0x3d9d7100	0.07687569
197	0xbd591246	-0.052995943
198	0x3e315f39	0.17321481
199	0x3d14dd91	0.036344115
200	0x3d5c889f	0.05384123
201	0x3d8b63c3	0.068061374
202	0xbcf18ac1	-0.029485108
203	0x3dc3df2e	0.095640525
204	0x3c912f85	0.017722854
205	0xbe016976	-0.12637886
206	0xbc86f0fd	-0.016472334
207	0x3ca5a6c7	0.020221127
208	0x3cddabb7	0.02705942
209	0x3d022f93	0.03178365
210	0x3b975f6c	0.0046195295
211	0xbbcd774b	-0.0062703243
212	0x3c27ee9f	0.010249763
213	0x3c21b836	0.0098705795
214	0x3d512ec7	0.05107
215	0x3ddbccbf	0.107324116
216	0xbb99f90f	-0.0046988796
217	0x3dac9c9b	0.084283076
218	0x3da706f5	0.08155624
219	0xbcfc2336	-0.030778509
220	0xbd9d1ca5	-0.07671479
221	0x3cf38c6d	0.029730046
222	0xbdd876a6	-0.105695054
223	0x3da8fd34	0.0825142
224	0xbcc68a19	-0.024235772
225	0x3d44ab9b	0.04801522
226	0xbcb9e96c	-0.022694312
227	0x3c18b511	0.009320513
228	0xbbe29112	-0.0069142664
229	0x3d025ae4	0.03182496
230	0xbc2114fd	-0.009831664
231	0x3d460303	0.048342716
232	0x3d5b3923	0.053521287
233	0xbc8580b8	-0.01629673
234	0x3d15e3cf	0.03659421
235	0x3d600590	0.054692805
236	0xbe192b66	-0.14957961
237	0x3d13462a	0.035955586
238	0x3de1a06c	0.11016926
239	0xbc195439	-0.009358459
240	0x3d4911ba	0.04908917
241	0x3dcdb3c4	0.10044053
242	0xbd2c6227	-0.042085793
243	0xbd38d474	-0.045124486
244	0x3d058de0	0.032606006
245	0xbbb5622e	-0.0055353856
246	0x3b750f8c	0.00373933
247	0xbca91ab5	-0.020642618
248	0x3cbc373f	0.022975562
249	0xbc9d7196	-0.019219201
250	0xbd27b9e9	-0.040948782
251	0xbda11eef	-0.07867228
252	0x3c4886a1	0.012239129
253	0xbc152f25	-0.009105478
254	0x39cb1371	0.00038733662
255	0xbaaff746	-0.0013425134

bias f4 [128]
0	0x3c16b36a	0.009198049
1	0xbd04cd27	-0.03242221
2	0xbd99df85	-0.07513336
3	0xbdb117bd	-0.08647106
4	0xbdb70356	-0.08936183
5	0xbc8cb166	-0.017174434
6	0x3cf8ad40	0.03035605
7	0x3d011a6c	0.03151934
8	0x3dbae11a	0.09124966
9	0xbcd29775	-0.025706986
10	0xbd196f4d	-0.03745966
11	0x3b764f6a	0.0037583956
12	0x3c8d4036	0.017242532
13	0x3d56f1ac	0.05247657
14	0xbb26c817	-0.0025448853
15	0x3db865da	0.09003802
16	0x3cd4b943	0.025967246
17	0x3d853e12	0.065059796
18	0xbcc0a855	-0.023517767
19	0xbd08c320	-0.03338921
20	0x3cd21173	0.025643086
21	0xbcccba33	-0.02499113
22	0xbbf395f3	-0.007433647
23	0x3d262e79	0.040571664
24	0xbb3a3add	-0.0028416433
25	0xbd5119f6	-0.05105015
26	0xbcc12230	-0.023575872
27	0xbc9e9757	-0.019359274
28	0x3d5f5d36	0.054532252
29	0xbcdbebff	-0.02684593
30	0xbd0ab3f4	-0.033863023
31	0xbd6ced93	-0.057843756
32	0xbc6d9025	-0.014499699
33	0xbd1fbf15	-0.03900059
34	0xbb6d746a	-0.0036232718
35	0xbba34bb9	-0.004983392
36	0xbd3c0e79	-0.04591224
37	0xbc58e273	-0.013237583
38	0xbc6276f5	-0.013822307
39	0xbcdfbdd7	-0.027312202
40	0xbd22aaea	-0.039713778
41	0x3d5c0c85	0.053722877
42	0xbd87794e	-0.06614934
43	0x3d8415c4	0.06449464
44	0x3dbf633e	0.09345101
45	0x3d72278d	0.05911975
46	0xbd878d2b	-0.066187225
47	0x3bb6cbdc	0.005578501
48	0xbc8b4101	-0.01699877
49	0xbdc7e0ad	-0.097596504
50	0x3cd47f3a	0.025939573
51	0x3b4d789d	0.0031352409
52	0xbd556884	-0.052101627
53	0xbc369977	-0.011144987
54	0xbcbf952b	-0.023386559
55	0x3d1ae7c1	0.037818674
56	0xbc888dfa	-0.016669262
57	0xbc43585e	-0.011922924
58	0xbd705ee9	-0.058684263
59	0xbbbd456b	-0.0057760975
60	0xbcd50772	-0.026004527
61	0x3ccd798e	0.025082376
62	0xbcca0500	-0.024660587
63	0x3c2ff53c	0.010739621
64	0x3ce9d9ad	0.028546179
65	0x3d89bdab	0.067256294
66	0xbd01d37f	-0.03169584
67	0x3bb9a4c3	0.005665393
68	0xbdc6d78e	-0.097090825
69	0xbd2be67e	-0.04196786
70	0x3c797955	0.015226682
71	0xbce80be4	-0.028325982
72	0x3d561e71	0.052275125
73	0x3ba2de8b	0.004970377
74	0xbc999721	-0.018748822
75	0xbd5263c9	-0.051364694
76	0xbd939e49	-0.07207925
77	0xbca04de3	-0.01956839
78	0x3cb2b897	0.021816535
79	0x3d9ac04a	0.075562075
80	0xbd6aef97	-0.057357397
81	0x3c74a8a7	0.014932788
82	0x3b8fc656	0.004387657
83	0x3d905f5b	0.070494376
84	0xbd023e87	-0.031797912
85	0x3c822784	0.015887983
86	0xbc13a13b	-0.009010608
87	0xba5bfce8	-0.0008391873
88	0x3b948f0e	0.004533655
89	0xbd1c367f	-0.03813791
90	0xbd2afed3	-0.041746926
91	0xbbbc609c	-0.0057488214
92	0xbcebb3e0	-0.028772295
93	0xbc2f114d	-0.010685277
94	0xbc30da45	-0.010794227
95	0xbbed0ea6	-0.0072344122
96	0xbd081078	-0.03321883
97	0x3d311588	0.043233424
98	0xbd9227ba	-0.071364835
99	0x3d904d8b	0.0704604
100	0x3cd8a3b5	0.02644525
101	0x3d6b9961	0.05751932
102	0xbd1fa544	-0.03897597
103	0x3c9000fa	0.01757859
104	0x3d155997	0.036462393
105	0xbc6848e6	-0.014177537
106	0x3cfec8a2	0.031101529
107	0xbcf16e5a	-0.029471565
108	0x3b1c7454	0.0023873048
109	0xba4ee34d	-0.0007892147
110	0xbd901e63	-0.07037046
111	0x3d66d090	0.056351244
112	0xbd4ba686	-0.049719356
113	0xbd092b12	-0.03348834
114	0xbd0d0f28	-0.034438282
115	0x3c9f3076	0.019432288
116	0x3d49e21d	0.049287904
117	0xbd1967e8	-0.03745261
118	0xbd3b2da5	-0.045697827
119	0x3c83dee2	0.01609749
120	0xbd187d7c	-0.037229046
121	0xbb25130d	-0.0025188357
122	0xbcad161c	-0.021128707
123	0x3bae2e13	0.005315551
124	0xbdb1c72d	-0.08680568
125	0xbd1aa286	-0.03775265
126	0xbcce7c19	-0.025205659
127	0x3c0f3ade	0.008742062
